…
/home/chazotrn/development/Spherinator/src/spherinator/models/Zernike_layer.py:114: UserWarning: To copy construct from a tensor, it is recommended to use sourceTensor.clone().detach() or sourceTensor.clone().detach().requires_grad_(True), rather than torch.tensor(sourceTensor).
  self.Zernike_matrix = torch.tensor(self.Zernike_matrix).to(self.device)
Seed set to 42
/home/chazotrn/.cache/pypoetry/virtualenvs/spherinator--ducJsVz-py3.10/lib/python3.10/site-packages/jsonargparse/_typehints.py:1457: JsonargparseWarning: 
    Unable to serialize instance ZernikeEncoder(   (Product0): Zernike_layer(     (Nonlin): Non_linearity(
    (lin): Linear(in_features=1, out_features=1, bias=True)     )     (In_Lin1): Multilin(       (Non_lin):
    Non_linearity(         (lin): Linear(in_features=1, out_features=1, bias=True)       )     )     (In_Lin2):
    Multilin(       (Non_lin): Non_linearity(         (lin): Linear(in_features=1, out_features=1, bias=True)
    )     )     (Out_Lin): Multilin()   )   (Product1): Zernike_layer(     (Nonlin): Non_linearity(       (lin):
    Linear(in_features=1, out_features=1, bias=True)     )     (In_Lin1): Multilin(       (Non_lin):
    Non_linearity(         (lin): Linear(in_features=1, out_features=1, bias=True)       )     )     (In_Lin2):
    Multilin(       (Non_lin): Non_linearity(         (lin): Linear(in_features=1, out_features=1, bias=True)
    )     )     (Out_Lin): Multilin()   )   (Product2): Zernike_layer(     (Nonlin): Non_linearity(       (lin):
    Linear(in_features=1, out_features=1, bias=True)     )     (In_Lin1): Multilin(       (Non_lin):
    Non_linearity(         (lin): Linear(in_features=1, out_features=1, bias=True)       )     )     (In_Lin2):
    Multilin(       (Non_lin): Non_linearity(         (lin): Linear(in_features=1, out_features=1, bias=True)
    )     )     (Out_Lin): Multilin()   )   (Lin_1): Multilin(     (Non_lin): Non_linearity(       (lin):
    Linear(in_features=1, out_features=1, bias=True)     )   )   (Lin_2): Multilin(     (Non_lin): Non_linearity(
    (lin): Linear(in_features=1, out_features=1, bias=True)     )   )   (Product3): Zernike_layer(     (Nonlin):
    Non_linearity(       (lin): Linear(in_features=1, out_features=1, bias=True)     )     (In_Lin1): Multilin(
    (Non_lin): Non_linearity(         (lin): Linear(in_features=1, out_features=1, bias=True)       )     )
    (In_Lin2): Multilin(       (Non_lin): Non_linearity(         (lin): Linear(in_features=1, out_features=1,
    bias=True)       )     )     (Out_Lin): Multilin()   )   (Product4): Zernike_layer(     (Nonlin):
    Non_linearity(       (lin): Linear(in_features=1, out_features=1, bias=True)     )     (In_Lin1): Multilin(
    (Non_lin): Non_linearity(         (lin): Linear(in_features=1, out_features=1, bias=True)       )     )
    (In_Lin2): Multilin(       (Non_lin): Non_linearity(         (lin): Linear(in_features=1, out_features=1,
    bias=True)       )     )     (Out_Lin): Multilin()   )   (Product5): Zernike_layer(     (Nonlin):
    Non_linearity(       (lin): Linear(in_features=1, out_features=1, bias=True)     )     (In_Lin1): Multilin(
    (Non_lin): Non_linearity(         (lin): Linear(in_features=1, out_features=1, bias=True)       )     )
    (In_Lin2): Multilin(       (Non_lin): Non_linearity(         (lin): Linear(in_features=1, out_features=1,
    bias=True)       )     )     (Out_Lin): Multilin()   )   (Product50): Zernike_layer(     (Nonlin):
    Non_linearity(       (lin): Linear(in_features=1, out_features=1, bias=True)     )     (In_Lin1): Multilin(
    (Non_lin): Non_linearity(         (lin): Linear(in_features=1, out_features=1, bias=True)       )     )
    (In_Lin2): Multilin(       (Non_lin): Non_linearity(         (lin): Linear(in_features=1, out_features=1,
    bias=True)       )     )     (Out_Lin): Multilin()   ) )

  warning(val)
/home/chazotrn/.cache/pypoetry/virtualenvs/spherinator--ducJsVz-py3.10/lib/python3.10/site-packages/jsonargparse/_typehints.py:1457: JsonargparseWarning: 
    Unable to serialize instance ZernikeDecoder(   (Product00): Zernike_layer(     (Nonlin): Non_linearity(
    (lin): Linear(in_features=1, out_features=1, bias=True)     )     (In_Lin1): Multilin(       (Non_lin):
    Non_linearity(         (lin): Linear(in_features=1, out_features=1, bias=True)       )     )     (In_Lin2):
    Multilin(       (Non_lin): Non_linearity(         (lin): Linear(in_features=1, out_features=1, bias=True)
    )     )     (Out_Lin): Multilin()   )   (Product0): Zernike_layer(     (Nonlin): Non_linearity(       (lin):
    Linear(in_features=1, out_features=1, bias=True)     )     (In_Lin1): Multilin(       (Non_lin):
    Non_linearity(         (lin): Linear(in_features=1, out_features=1, bias=True)       )     )     (In_Lin2):
    Multilin(       (Non_lin): Non_linearity(         (lin): Linear(in_features=1, out_features=1, bias=True)
    )     )     (Out_Lin): Multilin()   )   (Product1): Zernike_layer(     (Nonlin): Non_linearity(       (lin):
    Linear(in_features=1, out_features=1, bias=True)     )     (In_Lin1): Multilin(       (Non_lin):
    Non_linearity(         (lin): Linear(in_features=1, out_features=1, bias=True)       )     )     (In_Lin2):
    Multilin(       (Non_lin): Non_linearity(         (lin): Linear(in_features=1, out_features=1, bias=True)
    )     )     (Out_Lin): Multilin()   )   (Product2): Zernike_layer(     (Nonlin): Non_linearity(       (lin):
    Linear(in_features=1, out_features=1, bias=True)     )     (In_Lin1): Multilin(       (Non_lin):
    Non_linearity(         (lin): Linear(in_features=1, out_features=1, bias=True)       )     )     (In_Lin2):
    Multilin(       (Non_lin): Non_linearity(         (lin): Linear(in_features=1, out_features=1, bias=True)
    )     )     (Out_Lin): Multilin()   )   (Lin_1): Multilin(     (Non_lin): Non_linearity(       (lin):
    Linear(in_features=1, out_features=1, bias=True)     )   )   (Lin_2): Multilin(     (Non_lin): Non_linearity(
    (lin): Linear(in_features=1, out_features=1, bias=True)     )   )   (Product3): Zernike_layer(     (Nonlin):
    Non_linearity(       (lin): Linear(in_features=1, out_features=1, bias=True)     )     (In_Lin1): Multilin(
    (Non_lin): Non_linearity(         (lin): Linear(in_features=1, out_features=1, bias=True)       )     )
    (In_Lin2): Multilin(       (Non_lin): Non_linearity(         (lin): Linear(in_features=1, out_features=1,
    bias=True)       )     )     (Out_Lin): Multilin()   )   (Product4): Zernike_layer(     (Nonlin):
    Non_linearity(       (lin): Linear(in_features=1, out_features=1, bias=True)     )     (In_Lin1): Multilin(
    (Non_lin): Non_linearity(         (lin): Linear(in_features=1, out_features=1, bias=True)       )     )
    (In_Lin2): Multilin(       (Non_lin): Non_linearity(         (lin): Linear(in_features=1, out_features=1,
    bias=True)       )     )     (Out_Lin): Multilin()   )   (Product5): Zernike_layer(     (Nonlin):
    Non_linearity(       (lin): Linear(in_features=1, out_features=1, bias=True)     )     (In_Lin1): Multilin(
    (Non_lin): Non_linearity(         (lin): Linear(in_features=1, out_features=1, bias=True)       )     )
    (In_Lin2): Multilin(       (Non_lin): Non_linearity(         (lin): Linear(in_features=1, out_features=1,
    bias=True)       )     )     (Out_Lin): Multilin()   )   (output_Lin_1): Multilin(     (Non_lin):
    Non_linearity(       (lin): Linear(in_features=1, out_features=1, bias=True)     )   )   (output_Lin_2):
    Multilin(     (Non_lin): Non_linearity(       (lin): Linear(in_features=1, out_features=1, bias=True)     )
    ) )

  warning(val)
/home/chazotrn/development/Spherinator/src/spherinator/models/zernike_autoencoder.py:219: FutureWarning: You are using `torch.load` with `weights_only=False` (the current default value), which uses the default pickle module implicitly. It is possible to construct malicious pickle data which will execute arbitrary code during u
…
